model-pt/weights_best.pth (torch, 291075 bytes, 10 tensors)

conv.0.0.weight f4 [8, 3, 3, 3]
00000000: f1cd c23c e28b 0b3d 46bc 913d 8c97 11bd
00000010: 2853 4c3e 7332 143e cf97 a5bd 4c14 35bc
00000020: e19d 87bd 1ad1 1dbe 45ef 423d cebf b4bc
00000030: 65af bc3d 700f c7bd e6e6 3f3e b079 0bbe
00000040: 0b6e a3bc 662d 873d 73d8 863d 2ade 85bc
00000050: acc0 233e 34a3 a23c f876 cb3d 4447 763e
00000060: 9359 f73d b465 71bd 6604 063e e9e4 7c3e
00000070: b8a5 1a3e 8cfa d03d 7378 38be edb6 693d
00000080: 8178 bbbd 2133 d2bd 6f7e 903e 38ca 23be
00000090: 431c fa3d 111b ab3d 3ad6 113e 5742 c9bd
000000a0: ceca ee3b 1dbd 3fbe 49fd 07be f7ee b23e
000000b0: dd5f 1a3d 539e 043c 335e 27be c057 893e
000000c0: 3bbe 7abe cabf 29be 32fb 80be 24e5 8e3d
000000d0: a359 773e 9334 f23d 3bf7 1cbe 2ba9 25be
000000e0: ff85 ccbd 8f7d d5bd e425 89be f0a5 47be
000000f0: 7706 88be 907c 70be 4e1a 44be 1642 f6bb
00000100: 6906 9bbd a393 93bd 4628 a4bd 276a e53d
00000110: ca77 a3bc 7ac5 0a3e 288a b7bc 7c02 513d
00000120: 074c 0a3e d17b 743e d673 313e 4ca2 543e
00000130: eaa7 4a3e 429e 7d3e 3f37 9b3d aa1e 6f3e
00000140: 8369 e03d ba3d 2fbe 65b0 00be f518 093e
00000150: 817b 563e 4eb2 45be 9548 b3be 0148 28be
00000160: 5b2e f33c e1b3 e9bd 5bdb edbd a80b 93bc
00000170: 76ab 943e cc7a 613d 2412 b63d fedc 4cbe
00000180: 44d2 32be f4bf 743e 82a0 e33d fd84 07be
00000190: 9af5 c3bd 1562 043e e11a 453e 0086 993d
000001a0: 517d 40bd c1bb 45bd 240f 883d 3fc4 ef3d
000001b0: 1b65 303e fbf2 dfbc 5028 3bbe 2e81 47be
000001c0: d203 b7bd 492f 0e3e f208 68be 6308 9e3a
000001d0: c4f8 9b3e 4efc df3d 9c92 3e3e 3956 243d
000001e0: d32e 57bd 1055 92ba e0d7 4d3e e705 5bbe
000001f0: 52e5 4fbd 770f 913e a432 6f3e f86b 133e
00000200: 28dc ccbd 26f4 9ebd 9653 5ebe c53d 20be
00000210: 81a9 83be 325d a33c 8224 24bd 1da9 96bc
00000220: 315e 87be 5547 413e dcb3 543e 7c60 3f3e
00000230: 7ee6 5cbe 9da4 5bbe 614c f63d b819 0a3e
00000240: c371 65bd 88d8 c0be 29fb 543e 8af4 713e
00000250: 4841 373e af49 42be a431 4cbe bf12 38be
00000260: 6346 29be ea3a 06be 0962 b2bc 4635 0c3d
00000270: 746a cd3e 914d 203e 3b94 97bd a6ef b0be
00000280: b562 e43d 24d9 213c 63e1 9d3d 1ea1 9cbe
00000290: 5136 32be 3c4b a43d 542d 4f3e a4f8 b13e
000002a0: c039 fc3d 38ec 0d3e 5273 d93d a71c 293e
000002b0: 3cf5 dcbe 9099 d7bd 248e edbd f272 443e
000002c0: c416 8c3e 0214 073e 756b 2abd 00ca bc3c
000002d0: e172 183e 6efc efbe fd3e 90be 267a c43d
000002e0: 609c b1bc 7a06 2c3e fd56 923d e92b 8cbe
000002f0: 49cc bdbd 1ec5 103e a110 ea3d a8ce 55be
00000300: 6588 0f3e 01ac c739 8c92 b7bd d6d3 2f3e
00000310: c00f 14bd cfc2 5bbe 1328 cebc 0c60 d53c
00000320: 018d 94be 0c3f 693b 0cfe 0d3e 8bec adbd
00000330: b6f0 7f3e 8bc5 813d 4c68 07be cb07 853e
00000340: 3c41 013e 15d8 8abe 7f4d b83d 5263 d43c
00000350: 21c6 17be 7800 653e 3d81 8cbd e20c 8cbe
0.023779841 0.03406895 0.071159884 -0.035544917 0.19953597 0.1447237 -0.08085596 -0.011052202
-0.0662191 -0.15411797 0.047591466 -0.022064116 0.09213141 -0.09719741 0.18740425 -0.13620639
-0.019949934 0.06600456 0.06584253 -0.016341288 0.15991467 0.019853212 0.09934801 0.24050623
0.12077632 -0.058934882 0.13087615 0.24696697 0.15102279 0.10204038 -0.18014698 0.057059217
-0.09153844 -0.10263658 0.2822146 -0.15995109 0.12212422 0.08354772 0.14241877 -0.098271064
0.00728736 -0.18724485 -0.13280214 0.3494794 0.03768908 0.008094388 -0.16344528 0.2682476
-0.2448663 -0.16577068 -0.25191647 0.06977299 0.24155287 0.11826434 -0.15328686 -0.16177814
-0.09986495 -0.10424339 -0.2678672 -0.19496894 -0.26567432 -0.23485017 -0.1915066 -0.0075152023
-0.07569582 -0.07205894 -0.08015494 0.112018876 -0.01995458 0.13551894 -0.022404745 0.05102776
0.13505565 0.23875357 0.17329344 0.20765036 0.19790617 0.24767402 0.07578897 0.23351541
0.10957625 -0.1711339 -0.12567289 0.13388427 0.2094555 -0.19306299 -0.35016313 -0.16433717
0.02968519 -0.11411262 -0.11614104 -0.017949894 0.29037064 0.05504875 0.08890179 -0.20006177
-0.17463022 0.2390135 0.11114599 -0.13234325 -0.09568329 0.1292804 0.19248535 0.074962616
-0.04699451 -0.04827476 0.06643513 0.11707353 0.17226069 -0.027337542 -0.18277097 -0.19482872
-0.089362755 0.13885225 -0.22659662 0.0012056943 0.3046323 0.10936795 0.18610615 0.04012129
-0.05253489 -0.0011164267 0.20101881 -0.2138897 -0.050755806 0.2833211 0.23359162 0.14396656
-0.10002929 -0.07761411 -0.21711573 -0.15648563 -0.2571526 0.0199419 -0.04007388 -0.018391186
-0.2643905 0.18874867 0.20771736 0.1868915 -0.21572301 -0.21449514 0.12026287 0.13486373
-0.056016695 -0.376652 0.20798935 0.2362844 0.17895997 -0.1897342 -0.19940811 -0.17975901
-0.16530757 -0.13108411 -0.021775262 0.034230493 0.4012028 0.15654589 -0.074013196 -0.34557837
0.11151639 0.0098784305 0.07709005 -0.30591673 -0.17403533 0.08022162 0.20232135 0.3476001
0.123157024 0.13859642 0.10617699 0.16514836 -0.4315585 -0.105273366 -0.11599377 0.19184473
0.2736112 0.13191226 -0.041606385 0.02304554 0.14887573 -0.46872276 -0.28173056 0.095936105
-0.02168101 0.16799346 0.07145498 -0.2737725 -0.0926748 0.14137694 0.11428953 -0.20879614
0.14016874 0.0003808439 -0.089634985 0.17170653 -0.036147833 -0.21461032 -0.025165593 0.026046775
-0.29013827 0.0035590557 0.13866442 -0.084923826 0.24994168 0.063365065 -0.1322338 0.25982508
0.12622541 -0.27117983 0.08999156 0.025926266 -0.14821674 0.2236346 -0.06860588 -0.2735358

conv.0.0.bias f4 [8]
00000000: 5d60 9bbd 0621 05be 874d c53b 2794 393e
00000010: a5b1 ba3c 7a8d 353e 8ea4 8bba 5798 3f3d
-0.07586739 -0.13000879 0.006021205 0.18122922 0.022789786 0.1772975 -0.00106539 0.046776142

conv.1.0.weight f4 [16, 8, 3, 3]
00000000: 0872 923c fd7c 3a3b b595 103e 3783 4b3d
00000010: 0464 0bbe 23e7 f03d e435 34be 34cc 973b
00000020: 6ddb df3d e35c a7bd e6b1 c6bc 85fd c53d
00000030: d75d a1bd 2f12 44be 6a12 ee3d affb 5abc
00000040: 7a30 8c3c 057c 6dbc d351 f23d 1a26 083d
00000050: ceb0 dbbd b0b6 6abc 583c 0cbd 33a7 16be
00000060: 2b38 e73c 6e5d c4bd d234 ddbc b3f7 31bc
00000070: 834b 74ba 122e b23c 65ea 9d3c 453d 633d
00000080: 37c9 5fbc 0e49 f63d b761 173e 9543 e33d
00000090: 0f5b 48bd 845e 3cbd 39d1 b43e 2060 453d
000000a0: fa13 e93d f0d6 9f3e 1271 073d ccfe d3bd
000000b0: 4208 eabe cb2b 333e 2826 c33b 7299 033e
000000c0: 7ecd 72bd f21a 8a3d 0292 74bd 1f4d 9a3d
000000d0: f3b4 c0bd fc11 9f3d a73f 933d 5eeb 1ebe
000000e0: adf3 2e3d b577 3ebb bd22 8bbd 9da6 8ebd
000000f0: dad0 59be 2905 ed3d 1f57 a13c d753 2b3e
00000100: bf89 bf3c bef4 f9bd 42d1 c23e 4302 813e
00000110: 06eb 17be 117b a83e aee3 c2bd baa7 833e
00000120: 4205 aebe 1c4f afbe dbba 71be 7f99 93be
00000130: c30a 20be ee48 9abd 285a 17be bc4c f7bc
00000140: 3ed6 e4bd 33fc 4fbe 7444 fbbd 3193 cdbc
00000150: 53b9 8fbe f484 fbbd 05dc 6c3e b9fa 333e
00000160: 9b01 f73d 90f2 7a3e aa71 1bbd 94b5 d5bb
00000170: 2da4 0cbe 0bcb a93d 8ace e73d dd2d 1ebd
00000180: c6be ec3d b4a6 3dbe f449 8cbd f786 6f3e
00000190: e3fa 2c3d 7585 2bbe 04cd c33d 9874 553d
000001a0: ab47 1d3e 09e1 283e d18c 9d3e 07e7 283d
000001b0: 8ef8 8d3e b874 f03d 11b9 49bd 6511 eb3d
000001c0: cb76 5e3e a3f8 99bc 2eda 343d 3cd5 cdbc
000001d0: 9462 a33d 8122 473d 700e 24bd 403a 9bbe
000001e0: 6bc8 513c 2237 733e 8153 9fbd bc28 f93d
000001f0: 83a8 e13e 3db9 823e e105 34bd 0b14 853d
00000200: 8f06 563e 1ac6 84bd 4f77 2dbe 942a ae3d
00000210: 86eb 70be 50e5 163e 8598 b9bd 2d45 69ba
00000220: 900d a63c 6143 31be e7ad 2b3e af04 483e
00000230: c47b 87be babb bebd 2bbe 1c3e 7ed8 95bc
00000240: 28f0 a5bb 4791 0d3d 121f 463d bcf6 02be
00000250: 4a4f f3bc f187 6abc a22b fabd 53eb d63d
00000260: 2134 42bd 6aad 8ebc 49fe 6fbe e2cd 823d
00000270: c44e dabd 944d a13c d995 723e b5f2 3e3e
00000280: e50f d63e 254e d33e ece9 26bd 60b6 3abd
00000290: 962c 163e 90fd 37bd f3c3 803c 5e2b e4bc
000002a0: 9340 0d3e 1aac d83c 933b 4c3a 4852 e9bd
000002b0: 5d60 023e 3f02 06bd f254 8bbd 1e57 bb3a
000002c0: 59ca 543d 91f1 5abe a517 a23d 9d59 6d3d
000002d0: e310 3ebe 2907 4abd 98e9 d33d 03ea fbbd
000002e0: cf56 94bd bfd0 02bd d9ab b5bd c53c bf3d
000002f0: ea08 483e b1e5 d13c 280a 22be 5614 933e
00000300: 5c6a b53d e806 c13d 689d ec3e bf15 20be
00000310: 31c1 203e 9f93 513e 65be d5bd cb81 2ebe
00000320: a804 5f3e ee7a 96be 6133 afbe 09ab d83d
00000330: 01c4 babd dfbb 483e 6b61 6d3e 5b76 65bd
00000340: 164d 3f3e 35d3 aabb 55fe 2fbe d536 cc3c
00000350: 3d38 a33d 4ea2 ab3c e703 fd3d beac 953d
00000360: d388 84bb 8a83 aabd 748e 2bbd 913b 033e
00000370: 9410 b53c ee51 84bd 5332 9cbd ae30 0a3e
00000380: b06d 72bd fe71 41be 8193 51bd e1df f9ba
00000390: b9c2 ed3e 95db e13e 64e9 163e e9ea 56bc
000003a0: b4d8 6f3d a864 083d da27 20bd aac0 21bd
000003b0: 0b4c 563d 5f2a 6bbd b977 19be fa0e 38bd
000003c0: 43c0 ac3e c010 c13d 0e9d 13bd 8873 5ebe
000003d0: f3d0 f1bd 0b0c fd3b 690c 353e b76d 223e
000003e0: f8d5 ba3c fa2e fa3d f672 8e3e 03d0 063e
000003f0: a3ce d1bd c844 25be 7602 8e3d bcf2 11bd
0.01787664 0.0028455846 0.14119609 0.049685683 -0.13612372 0.11762836 -0.17598683 0.004632497
0.10930524 -0.081720136 -0.02425475 0.09667496 -0.07879227 -0.19147561 0.11624606 -0.01336567
0.01711296 -0.014494901 0.11832013 0.03323946 -0.10727082 -0.014325783 -0.034237236 -0.14712219
0.028225025 -0.09588133 -0.027002726 -0.010862279 -0.00093191135 0.021750484 0.019276807 0.055478353
-0.013658813 0.12025653 0.14783369 0.110968746 -0.048914965 -0.045988575 0.35315874 0.048187375
0.11380763 0.31218672 0.033066817 -0.10351333 -0.45709425 0.17497174 0.0059554763 0.12851503
-0.059278004 0.06743421 -0.059709556 0.07534241 -0.09409513 0.07767102 0.07189875 -0.15519473
0.042712856 -0.002906305 -0.06793735 -0.06965373 -0.21271077 0.1157325 0.019694863 0.16731201
0.023381112 -0.12204884 0.38050276 0.25197038 -0.14835748 0.32906392 -0.09516083 0.25713903
-0.33988386 -0.34240043 -0.23606436 -0.28828046 -0.15629105 -0.075334415 -0.14780486 -0.030187957
-0.11173676 -0.2031105 -0.12268916 -0.0250946 -0.2807108 -0.12281218 0.23130806 0.17576112
0.12060853 0.24506593 -0.037950195 -0.00652189 -0.13734503 0.082906805 0.11318691 -0.038617957
0.11559825 -0.18520623 -0.06850043 0.23391329 0.04223145 -0.16750129 0.09560588 0.052113146
0.1535937 0.16492094 0.30771497 0.04123595 0.27728695 0.11741012 -0.04924876 0.11477927
0.21725003 -0.018795317 0.044153385 -0.025126092 0.07977787 0.04861689 -0.04005283 -0.3031788
0.012804131 0.237515 -0.07779599 0.121659726 0.44073877 0.2553195 -0.04395092 0.064979635
0.2090094 -0.064830974 -0.16940044 0.08504215 -0.23527345 0.14735913 -0.09062294 -0.00088985526
0.020270139 -0.1731086 0.16765557 0.19533037 -0.26461613 -0.0931315 0.15306918 -0.018291708
-0.0050640292 0.034562375 0.048369475 -0.12789434 -0.029700894 -0.0143146375 -0.122153535 0.10494103
-0.047412995 -0.017416675 -0.23436846 0.06386925 -0.106595546 0.019690312 0.23689975 0.18647273
0.41809002 0.41270557 -0.04075043 -0.045584083 0.14665446 -0.04491955 0.015718436 -0.02785271
0.13794164 0.026449252 0.00077908597 -0.11392647 0.12732072 -0.032716986 -0.068033114 0.0014292931
0.051950786 -0.21381213 0.07914666 0.05794679 -0.1856113 -0.049323235 0.10347289 -0.123004936
-0.0724312 -0.031937357 -0.08870668 0.09337763 0.1953465 0.02562222 -0.15824187 0.28726453
0.08858177 0.094251454 0.4621384 -0.15633295 0.15698697 0.20466469 -0.104367055 -0.170417
0.2177912 -0.29390663 -0.34218886 0.10579497 -0.09119416 0.19602917 0.23181693 -0.056021076
0.1868175 -0.005213166 -0.17186864 0.02492849 0.07969711 0.020951416 0.1235426 0.073083386
-0.004044631 -0.0832587 -0.0418839 0.12815692 0.022102632 -0.06460939 -0.07626786 0.13495132
-0.059186637 -0.18891141 -0.05116606 -0.0019063913 0.46437624 0.4411284 0.14737469 -0.01311753
0.058556274 0.03329912 -0.039100505 -0.03949038 0.052318614 -0.057413455 -0.14987077 -0.044936158
0.33740434 0.09427023 -0.03603845 -0.21723759 -0.11807432 0.007722383 0.17680515 0.15862165
0.022807106 0.12215991 0.27822083 0.13165288 -0.10244491 -0.16139519 0.06934063 -0.03563188

conv.1.0.bias f4 [16]
00000000: c5e3 bcbd 48c6 1d3e 9090 44be 54e4 3fbe
00000010: 26df 8ebe 8d22 f3bd f59d c03d c5be c3bd
00000020: eed6 58be cfa3 cdbd 214e 183a 20b1 9dbe
00000030: 845e 52bd 863b 0b3c e5ff bbbd 6b9b 88bc
-0.09223131 0.1540767 -0.19195771 -0.18739444 -0.27904624 -0.118718244 0.09405128 -0.09557871
-0.21175739 -0.1004101 0.0005809982 -0.30799198 -0.05135967 0.008498078 -0.091796674 -0.016675672

conv.2.0.weight f4 [32, 16, 3, 3]
00000000: abb7 323e 018b 4b3e c49f 043e 2042 ad3c
00000010: 81eb e73d 2753 513d e425 f23d 5611 e9bc
00000020: 669b 83bd eb03 71be 0c0b 953d e2a5 d0be
00000030: 232c 9ebe 8c58 243e b936 85be 0b04 b4bd
00000040: 1d71 b53d adfd c7be c80d 153d dd4e e13d
00000050: 2f49 dd3d e5d7 d53d 527b 6d3d 3f53 9dbe
00000060: 3e79 dc3d d6f4 e3bd 428d abbe d364 293d
00000070: 0bd5 16be ca9c 1a3e d3e6 903d 5c3c abbe
00000080: ec9f 973d 43ec aabd dc28 e3bd bd8b e0bd
00000090: 819c 613b 1aac 163e 5694 833e 7bd6 95bd
000000a0: 5485 d33d 12dc 18be d43b dc3c b383 2e3d
000000b0: 323e cbbd 1cab c1bd 6f67 0d3d b15d 263e
000000c0: a5e9 273d 3f53 1cbe 3721 153d cbe0 383e
000000d0: 7894 2a3e 5257 ccbd 1281 25be c628 24be
000000e0: 9030 383e b61d fabc 34a8 80be aae2 653d
000000f0: d71f 8cbc 2d7f c4be 4f9c 30bd 24b2 5ebe
00000100: 6ac6 83bf a3b7 8a3e 4c3a e63c c850 04bf
00000110: 287b 9abd 9e92 abbc 59bf 853d d6a2 17bf
00000120: 48e4 433e dc7d 1d3e cd74 61be 13bb 073e
00000130: 8a63 e33d cebd fc3d 2f88 a03e 9de0 903d
00000140: 3cf3 afbe e1b2 81be fd5d 42bd 4fd6 ac3e
00000150: 9174 3cbe e7ff a73c 0774 9cbb e9c7 00be
00000160: 11f8 823e acf5 b63d ff5d fcbd d77c ea3c
00000170: 63c5 adbe be39 0c3e 4365 0c3e 9c2c febd
00000180: 060e 3e3e 797f a03d 9128 70be 802b d0ba
00000190: 0a48 423e e04f 133e 9934 b2bd 6ad4 583d
000001a0: 35dd 203c b1bb d23c 3754 d03d 46bb d4bd
000001b0: 3c9c 92bd bf0f cebd 029d efbd bf86 f63c
000001c0: 6996 3ebe be4d 2bbc a8c4 4c3d 3e8d 523e
000001d0: 0976 7fbe 8d6f e8b8 efbc 563d 39ba 3d3e
000001e0: 2277 91bd d12e ae3d 1bd1 023e a951 94be
000001f0: 87d5 febd bfa3 26bc 90b6 a2bd e646 5ebc
00000200: 0cce cc3d df92 243e 03c9 f43c 5ad4 503e
00000210: 0744 4b3d ada7 20bd f907 91be 4b6c aa3d
00000220: ba30 bcbd 2a08 99be 3f5b 1c3d dcdf 84be
00000230: 743c 103e cf83 a03d d9ee 4cbe a816 cbbe
00000240: 513d 683d 65f3 cbbd 20e6 95bd 86dc a5bd
00000250: 9ae9 1cbd 3219 2dbc c371 85bc a0fa a4bd
00000260: b4d1 03ba 7b92 263e 5d47 083c 48d9 6bbd
00000270: 08e3 933c 9357 2b3d dab8 37bd 34e7 29be
00000280: 1137 52be 0b3b 6bbd 713c 4f3b 3006 cc3d
00000290: 667b 173d 0bed 1e3e 46cc 2c3e 6bfa 153e
000002a0: 0ba7 3dbd 45fc 2ebd 831f 013d 0853 003e
000002b0: fb5f a03d a9a6 b03d 94fe a13e afb3 a23d
000002c0: 2c3c a53d e0f7 b6bc 1cef 56be 149a e83d
000002d0: 33da 873e 101c 923e 3ee0 8f3e 11f8 0d3d
000002e0: 4e25 9b3d 3683 653d 2c1e 6fbd f59f a5be
000002f0: 894c 3c3d 8103 c43d 661c a5bd 9c26 08be
00000300: b5b4 4fbc 1eb2 9cbd 0515 02be db7f 5dbe
00000310: 170c 97bd ba8b 01bd 293e 183e 6ff3 07bd
00000320: 818f 18be f44d a63d ea1b 16be 6530 14bb
00000330: 2034 8abd 1d39 303b c3f0 a9be d8cf ac3d
00000340: ab51 96bb d605 eabb e0da f33c 6699 bebd
00000350: 4871 453e 39ab 9e3d f7c4 c93d da6f 953d
00000360: 40dc 953c 6624 16bc 6791 b63b 5a58 04be
00000370: a49c 063e c42a 473d dbc9 c9bd f815 18bd
00000380: 62de 4b37 c4e6 15be 5721 923d b09a b63d
00000390: 8772 a9be e01c 1cbd be46 88be a349 643d
000003a0: 767b 8f3e c1cd 14be 8c87 be3d caac 3c3d
000003b0: afab ac3c ab8c 813b cf97 243c 647b 20bd
000003c0: 8110 bc3d 5865 0d3d 40fc d93d 0897 2b3e
000003d0: 071f 1c3e 036a 6cbc 1110 0d3e 6271 433d
000003e0: 0ef3 5e3d 1519 4ebd 2504 adbd 172e acbd
000003f0: b239 3f3e 9a30 56be f6a1 b4bd b1f2 4f3e
0.17452876 0.19877245 0.12951571 0.021149695 0.11324216 0.05110469 0.11823633 -0.02845065
-0.06426124 -0.23536651 0.07277498 -0.4075156 -0.3089305 0.16049403 -0.26018313 -0.08789834
0.08859465 -0.39060727 0.036390096 0.1100137 0.10804974 0.10441569 0.057978936 -0.30727574
0.107653126 -0.11130683 -0.3350621 0.04135592 -0.14729707 0.15098873 0.07075276 -0.33444488
0.074035496 -0.083458446 -0.11091778 -0.10964153 0.003442556 0.14714089 0.2569911 -0.073162995
0.10328165 -0.149277 0.026883997 0.042606067 -0.09923972 -0.09456465 0.03452247 0.16246678
0.040994305 -0.15266131 0.03640863 0.18054502 0.16658199 -0.099775925 -0.16162518 -0.16031179
0.17987275 -0.030531745 -0.2512833 0.056124367 -0.017105026 -0.38378277 -0.043117817 -0.21747643
-1.0294926 0.2709323 0.02810397 -0.5168576 -0.075430214 -0.020943936 0.06530637 -0.5923284
0.19130051 0.15380043 -0.22017212 0.13254957 0.1110297 0.1234089 0.313539 0.070740916
-0.3436526 -0.25331786 -0.047452915 0.33757254 -0.18403842 0.020507766 -0.0047745737 -0.1257626
0.25579885 0.08933577 -0.12322616 0.028623981 -0.33939657 0.13693902 0.13710503 -0.12410852
0.18560037 0.078368135 -0.23452975 -0.0015882105 0.18972793 0.14385939 -0.087014385 0.05293695
0.009818365 0.025724264 0.10172313 -0.10387282 -0.071587056 -0.10061597 -0.11699869 0.030093549
-0.18612064 -0.010455547 0.049992234 0.20561692 -0.2494737 -0.000110834 0.052426275 0.1852807
-0.07102801 0.08505023 0.1277508 -0.28968552 -0.12443071 -0.010170876 -0.07944977 -0.013566708
0.10000238 0.16071652 0.029881006 0.20393506 0.049625423 -0.039222408 -0.28326395 0.083214365
-0.09188981 -0.2988904 0.038172957 -0.2595204 0.14085561 0.078376405 -0.20012988 -0.39665723
0.0566991 -0.09958533 -0.073192835 -0.08098702 -0.038308717 -0.010565089 -0.016289597 -0.080556154
-0.00050285016 0.16266815 0.008317796 -0.057580262 0.018052593 0.041831564 -0.044854023 -0.16592103
-0.20528819 -0.057429355 0.003162172 0.09962118 0.036982916 0.15520112 0.16874799 0.14646308
-0.046301883 -0.04272105 0.031524193 0.12531674 0.07830807 0.08625538 0.3163954 0.07944428
0.080681175 -0.022334993 -0.2098965 0.11357513 0.2653366 0.28537035 0.2810077 0.034660403
0.07575475 0.056033336 -0.058378384 -0.323486 0.045971427 0.09570981 -0.08062057 -0.13295978
-0.012677361 -0.07651161 -0.12703331 -0.21630804 -0.07375353 -0.031627394 0.14867462 -0.03319114
-0.14898492 0.08120337 -0.14659086 -0.0022611853 -0.06748223 0.002688951 -0.331915 0.084380805
-0.0045873723 -0.007141809 0.029767454 -0.09306602 0.19281495 0.07747502 0.09852021 0.072967246
0.0182935 -0.0091639515 0.0055715325 -0.12924328 0.13145691 0.04862477 -0.09852954 -0.037130326
1.215152e-05 -0.14638811 0.07135265 0.08916223 -0.3309519 -0.038113475 -0.26616472 0.055734288
0.2802388 -0.14531614 0.09303197 0.046063222 0.021077959 0.0039535365 0.01004596 -0.039180174
0.09182835 0.034520477 0.10643816 0.16756833 0.15246211 -0.014429572 0.1377566 0.047715552
0.054431014 -0.05031689 -0.08448056 -0.084072284 0.18674353 -0.20916978 -0.08819954 0.20307423

conv.2.0.bias f4 [32]
00000000: dd39 06be 2e89 99be 68d6 34be 4deb 373c
00000010: aee5 30bc a06d 91bc 4568 8ebd abdf 8e3d
00000020: 06b4 60be 87fc e73d fc79 95bd 3ff3 0cbd
00000030: 6244 b1be 2913 24be 3245 83be 9d71 2c3d
00000040: bffd 08be 8cf7 80be abab 82be e117 a4bd
00000050: 44fd 61be ca37 133e 557f 27be c565 683e
00000060: 70ce 91bd 629b 423e a365 14bd 6b6e 253e
00000070: 75fe 6f3d 6aa7 8cbd e611 93be 2b2f 5f3e
-0.1310801 -0.29987472 -0.17659914 0.011225534 -0.010796947 -0.017752469 -0.069534816 0.06976255
-0.21943673 0.11327463 -0.07298657 -0.034411665 -0.34622484 -0.16022934 -0.2563873 0.042100538
-0.13378046 -0.25188863 -0.25521597 -0.08012367 -0.2206927 0.1437675 -0.16357167 0.22695072
-0.07119453 0.19004586 -0.03622974 0.16155402 0.05859228 -0.06867869 -0.28724593 0.21795337

fc.0.0.weight f4 [128, 512]
00000000: cd07 a6bd c23e c6bc 7924 06be d7fb bebc
00000010: 3f42 cbbd 15bf f63d 304e 00be 2b87 ac3d
00000020: fe19 40bd 4bc4 f33d caa4 813e 8c8e 4ebb
00000030: 253b 1bbe 9f4f 9d3d 13b3 69bd 2da7 8cbd
00000040: 90b4 f63c ea03 abbe 74e0 c9be 918c 44be
00000050: e579 9c3d 27bd 7fbe e061 59be dea0 c8be
00000060: ece2 ddbc 38e7 99be 4275 81be fbd9 0abf
00000070: 2535 143d 4c4e 0fbe 86e1 93be 8b51 21be
00000080: 1853 62bb 783b 083e 4f3d 4f3d 67c5 fe3d
00000090: dce9 833c a2c5 5f3e 99f0 b93e 8ba0 d63d
000000a0: b43c 2cbc 5a5a 3e3d 50a0 2c3e f58c 7f3e
000000b0: c23e c23c d941 8a3d 4ccd eb3b ee13 8fbd
000000c0: 82ea 6bbb d4e4 31be 33e7 17be 85b6 2b3e
000000d0: 262b c8bd 9fff 75be 2f2f 2abe 2a60 52bd
000000e0: 51e8 1fbe 098f 56be 8620 0bbf 17f7 5bbe
000000f0: 4987 e13d 8f03 8dbd 15f5 b1be 8680 c1bc
00000100: 94b2 6d3e 2fdc 493e 2a55 2a3e cfde 51bd
00000110: a918 bcbb 9839 88be d2c8 b2be bab8 bebd
00000120: 00f0 713d 706c be3d c758 563d d53b 813c
00000130: bd41 363e 18c2 853d 87f5 e03c d0f9 2b3d
00000140: 3bfd f6bc 3ad0 143e f128 47be 7526 d73d
00000150: a2fe 663e 5692 bc3e ba6b ecbc fa68 513c
00000160: 193c c2bb 62cc febd 07cf 2fbe c850 1bbe
00000170: aef9 85bd 53cd 61be d74e 0c3d 4371 a2bd
00000180: cf61 a5bd 6f9f c4be 3c28 1abe a0c1 373e
00000190: 0023 4e3d 8161 32be b195 0abe 72ff f7bd
000001a0: fedd c1bd 457e bebe 1166 91be b2ed 87bd
000001b0: 64f6 9dbb 1a59 713d 0ad8 d13d b659 81be
000001c0: ca3f 49be 1f3c 093d dc9f c8be 1eb3 83be
000001d0: 75c1 953d 2aec b13e 24ad 253d 4dd4 5f3e
000001e0: 47c3 613e d9dc ae3e 8531 cf3d 1aa8 663e
000001f0: 97d8 8cbe 8136 ea3c 3b3c 20be 8fed 8bbd
00000200: c232 163e 9c5a 57bd a9f6 153e ded5 e3be
00000210: ea8f 103b 89f4 babd 16b0 443e b91c c9bd
00000220: 1988 18be 555f f4bc f958 a43e e957 96be
00000230: 811a d43d dfd6 1f3e 2a4f dbbb 1740 33be
00000240: 252e 0e3e 9ecb d93d d37f 5d3d 25cb cd3d
00000250: 19da 2d3e 3c4e 423d 9bd3 893b 84cb 60b9
00000260: e5fd c23c 8a1e e13d 8ae5 ec3d 9490 803d
00000270: 9d02 333d 068c d2bd 0f62 d53c 0a98 fabd
00000280: db36 69bc c6a6 b2bc 0a86 7ebc 3367 d33a
00000290: a71c f83b 45df 2bbc 3115 85bb 0a39 a03a
000002a0: 0dcc cb3c 7843 c6bc 5ced 803b 4292 db3a
000002b0: b0ff 0abd 7b4c 24bc e3ad 0d3c 3d89 97bc
000002c0: 90be 943d be00 5d3e 7e60 ab3d 181d 803e
000002d0: 069c 09be 9259 1ebe 094d 4d3d ed4e 9cbd
000002e0: 47f1 c83d 5875 b53b 615c 683d efcf 94be
000002f0: 5f0b 5a3e 3504 4f3e 6253 773e bc33 853d
00000300: d87d 293e e770 543b 1e06 cc3d 872a 6dbe
00000310: 5f22 78bd 807e 21be b9c1 9639 20eb 06be
00000320: bb86 93be 5bc3 e3bd ce60 94bd 9117 693d
00000330: b372 6e3e 813b 13bd 323c c53d 74ce 9abb
00000340: 9a65 9ebd 8c6e dd3d 76e8 00be a771 98bd
00000350: b05c 8cbd 29f9 b8be d84c 02be 7d0a 543d
00000360: 3b43 6cbe f765 15be 5af2 a2be e4ad ddbd
00000370: 1b54 5cbe 8a14 60be 5ae1 eabd edc1 8fbc
00000380: 9d88 da3d c53c d23d 0f12 503e 50a3 d23c
00000390: 9608 2c3e b39b 953e 2cef 713e 02e0 2e3d
000003a0: 4f8e 35be dbe2 32be afc8 19be 9150 c53d
000003b0: 47f3 41be f804 dfbd 61a1 42be 1e1e 26bd
000003c0: e87a 1cbe b9de 7bbd 3287 0b3e 2750 e3bd
000003d0: d044 08bd 77b0 58be bbb9 2abe 5874 f43d
000003e0: b183 c13d 4643 f2be 917f 62bc dd46 b93c
000003f0: e774 38bc e995 97bc ad2d 35be a78b a93d
-0.08106957 -0.024199847 -0.1309985 -0.023313446 -0.09924745 0.12048165 -0.12529826 0.08424219
-0.046899788 0.11902674 0.25321037 -0.003151807 -0.1515928 0.07681202 -0.057055544 -0.06867824
0.030115396 -0.33401424 -0.39429057 -0.19194247 0.07640437 -0.249745 -0.21228743 -0.39185232
-0.027085744 -0.30059218 -0.25284773 -0.5423886 0.036183495 -0.13994712 -0.28882998 -0.15753762
-0.003453439 0.13303936 0.050595578 0.12439995 0.016102724 0.21852735 0.36316374 0.1047984
-0.01051252 0.046472885 0.1685803 0.24956115 0.023711566 0.06750841 0.007196104 -0.06986223
-0.0035997932 -0.17372447 -0.14834289 0.16768844 -0.09773855 -0.24023293 -0.16619562 -0.05136124
-0.15615965 -0.20953001 -0.543465 -0.21480976 0.11012132 -0.068854444 -0.34757295 -0.023620855
0.23212653 0.197129 0.1663405 -0.051237877 -0.0057402444 -0.2660644 -0.3491884 -0.093125775
0.059066772 0.092980266 0.05233076 0.0157756 0.17798515 0.06531161 0.027460827 0.041986287
-0.030150047 0.14532557 -0.19449212 0.10505382 0.22558072 0.36830395 -0.028859962 0.012781376
-0.0059275744 -0.12441327 -0.17168818 -0.15167534 -0.06541763 -0.22050981 0.034254875 -0.07931759
-0.08075296 -0.38402888 -0.1505441 0.17944956 0.050326347 -0.17420007 -0.13533665 -0.12109269
-0.0946617 -0.3720571 -0.28398183 -0.06637134 -0.004820632 0.058922864 0.10246284 -0.25263757
-0.1965324 0.0335046 -0.39184463 -0.25722593 0.073122896 0.3475049 0.040448323 0.2185833
0.22047149 0.34152868 0.10116867 0.22525063 -0.27508995 0.028590443 -0.15647976 -0.0683242
0.146678 -0.052576646 0.14644875 -0.44499105 0.0022058436 -0.09128673 0.19207796 -0.098199315
-0.14895667 -0.029830614 0.3209913 -0.29363945 0.10356618 0.1560931 -0.0066927867 -0.17504917
0.1388479 0.1063454 0.05407698 0.10048512 0.16977729 0.04743789 0.0042061335 -0.0002143812
0.023802707 0.10992153 0.115672186 0.06277576 0.043703664 -0.102806136 0.026047735 -0.122360304
-0.01423427 -0.02180804 -0.015534887 0.0016128778 0.007571775 -0.010490243 -0.004061364 0.001222403
0.024877572 -0.024202093 0.0039345454 0.0016751962 -0.03393525 -0.010028 0.008647415 -0.018498057
0.072629094 0.21582314 0.08368014 0.25022197 -0.13438424 -0.15463856 0.050122295 -0.076322414
0.09811645 0.00553767 0.056728724 -0.2906489 0.212934 0.20216449 0.24152902 0.06504008
0.16551912 0.0032415928 0.09962104 -0.23160754 -0.060579654 -0.15770912 0.00028754564 -0.1317563
-0.2881373 -0.111212455 -0.072450265 0.05690724 0.23285942 -0.03594542 0.09630622 -0.004724318
-0.07734223 0.10812101 -0.12588677 -0.074435525 -0.06853616 -0.36127594 -0.12724626 0.051767815
-0.23072521 -0.14589678 -0.31825525 -0.10824183 -0.21516459 -0.21882835 -0.11468764 -0.017548526
0.10670588 0.10265497 0.20319389 0.02571264 0.1680015 0.29220352 0.23626393 0.0426941
-0.17730068 -0.17469351 -0.15017961 0.096345074 -0.18940459 -0.108896196 -0.19006874 -0.040556066
-0.1528126 -0.0614917 0.13625792 -0.11099272 -0.03326875 -0.21161066 -0.16672413 0.11936253
0.09448946 -0.4731695 -0.0138243595 0.022616798 -0.01125834 -0.0185041 -0.17693205 0.0827859

fc.0.0.bias f4 [128]
00000000: f6d4 373e 605a 193e 663f 523b 5524 38bc
00000010: aee4 c7bb 2c07 e1bc 7f4a 16bd c660 41bd
00000020: 0298 7cbc 4a25 793c 23e5 273e 43f4 87bc
00000030: 188f dcbc 5125 8f3c c255 71bd 6391 cb3b
00000040: c34e 8bbc 57a0 17bd 6f08 923d 6dea bfbc
00000050: 0a67 d8bc 8427 36bc a127 ac3d 9a7d 113b
00000060: b0b6 813c faa8 503d c45d 1cbe dd36 82bc
00000070: 5485 043e 1c33 47bd 4269 abbc 547d 353e
00000080: 1bfd 2bbc b2b4 29bd 20bb 7fbd 13b7 243e
00000090: 27d1 1f3e d8bb c3bb 2f5c 883c 5a2e 283e
000000a0: d81e 8fbc 6913 033e 97bb 87bc 24e5 cdbc
000000b0: 3032 a03c 26fe a33d cb5d b2bd 8aeb 843d
000000c0: 5eec ae3d 466b 2c3c a7a8 8cbb d806 7a3d
000000d0: 1930 7abc f2d5 71bd 75a9 e1bc a871 b1bc
000000e0: 4658 c83d d4d8 1d3e 0a2b dabc d4b3 05be
000000f0: 7979 c43d 4dda b33d bf6f 993d a0bb c8bc
00000100: 4ff2 2ebd 0db7 87bc d180 3a3d 4717 2ebd
00000110: 61f1 edbc ec76 83be 642e 813c 116b 0fbd
00000120: 8889 1ebd f73d e13d becd d33c bf28 9b3d
00000130: 3841 f0bb 2bec b73d df8b 5e3d f36e c2bc
00000140: eed0 2e3d d2db 2ebd 68f0 0bbd 0a5d 9e3c
00000150: 5f29 1abd cece 00bd 698a 03bd 7d60 89bd
00000160: acc7 0a3e d721 1e3e 1d1e be3d d3bd 89bc
00000170: b041 403c 7f83 8d3d 1baa ac3d 9c96 593d
00000180: aa63 21bd 30db d4bd 824d ca3c f901 48bd
00000190: d152 f1bc 622a 1bbb a643 cd3c accd bebb
000001a0: 1bf6 613d 7a31 873d 4a88 84bd 63ac a83d
000001b0: 63fb 0cbd cf1a 65be e12b a2bc 01af 67bd
000001c0: 1100 5c3d f7e5 13bd bc8f 203d 7567 38bd
000001d0: 26cb db3d f362 c6bc 57c1 4b3e 2c64 953c
000001e0: 28bf 3cbc eafd fdbd a585 c1bc d573 f9bc
000001f0: d5c5 bc3c b3b4 013e 8259 9f3d dca1 59bc
0.17952332 0.14975882 0.0032081245 -0.011239131 -0.006100259 -0.02746924 -0.03669214 -0.04721143
-0.015417101 0.015206644 0.16396002 -0.016595965 -0.026923701 0.017473849 -0.058919676 0.0062124
-0.01700533 -0.037018146 0.07130515 -0.023427213 -0.02641632 -0.01111782 0.08405996 0.0022200109
0.015834183 0.0509424 -0.15270144 -0.015895301 0.12941486 -0.048632726 -0.020924214 0.1772359
-0.010497357 -0.04143209 -0.062434316 0.16085462 0.15607129 -0.0059733205 0.016645519 0.16423932
-0.017470762 0.12800373 -0.016568942 -0.025133677 0.019555181 0.08007459 -0.08709296 0.06490238
0.08541177 0.010523623 -0.004292566 0.061041683 -0.015270256 -0.059041925 -0.027546624 -0.02166064
0.09782462 0.15414745 -0.02663185 -0.1305688 0.095934816 0.08781872 0.07492017 -0.02450353
-0.042711552 -0.016566778 0.045533005 -0.042502668 -0.029045762 -0.25676668 0.015769191 -0.035014216
-0.03870538 0.10998147 0.025854941 0.07576131 -0.0073319934 0.08980592 0.05433261 -0.023734545
0.04267972 -0.042690106 -0.034164816 0.019331474 -0.03763711 -0.031447224 -0.03211442 -0.06707857
0.13552731 0.15442596 0.092830874 -0.016814148 0.011734411 0.069098465 0.084308825 0.053122148
-0.039401688 -0.10393369 0.024695162 -0.048830006 -0.029458435 -0.0023676385 0.025056671 -0.005822858
0.055166345 0.06601234 -0.064713076 0.08236005 -0.03441943 -0.22373508 -0.019796314 -0.05656338
0.053711 -0.036107983 0.039199576 -0.04502054 0.10732107 -0.024217105 0.19897972 0.018236242
-0.011520185 -0.12401946 -0.023623297 -0.03045074 0.023043552 0.12666588 0.07780744 -0.013283219

fc.1.0.weight f4 [2, 128]
00000000: dddf 0dbf 3be5 f3be 069f 07bd 8544 4abc
00000010: 406e fe3c 0ce3 343c 94fd 43bd f0f8 a33e
00000020: e28f 35bd 8249 ddbe 68d9 d0be b70a 8ebc
00000030: fe2f 173d 7cba cebe d7f2 82bc 0a14 f0be
00000040: 098c 52bd 7065 80bd 4c92 0bbf 045a 07bf
00000050: 7ecb 08bc 63d8 983e df85 093f 87b7 a8bc
00000060: f8d7 f3ba 2223 ad3e 961b 2abf 7063 f73c
00000070: c96a ecbe 45cd 793d 5842 85bc 9abb 76be
00000080: f938 6f3d 5a8c da3e 027a bd3e 5476 39bf
00000090: 0524 cabe 90f2 2abd 0957 0f3f f6d6 27bf
000000a0: de42 4bbc 7719 f2be 1ea6 d6be 537a 75bd
000000b0: b45a 2f3f 29e1 3ebf bca9 04bf 3533 0dbf
000000c0: 626b 18bf 9c3d 613d b769 c53c 1d6e b9be
000000d0: 107d 343c 1905 013d 0e2d ebbe 8ca6 933c
000000e0: 229e 11bf 3ea6 d3be fbc1 b8bb 11ed 9d3e
000000f0: 7d0e 09bf 0815 e5be 0a20 0e3f 7b10 083c
00000100: 1327 873c dfdf b13c 2eb5 48bf bcd4 053f
00000110: 9f38 8cbc f2fb 543f 74ea 503e 3b6f 5ebc
00000120: ed46 633d 3cc5 f13e 0b34 17bd 4c48 483e
00000130: 4ce0 193e 4b58 bcbe 9ebe fdbd f5d5 223d
00000140: 2a29 20bf 6ed5 613e ff3a e43b 2c78 293f
00000150: e98e 5c3d 8628 1f3b 5172 fb3c 6cbb 343f
00000160: 055e 38bf a26b e1be 0102 993e 4cb3 033f
00000170: b3dc 183f ebac 85be ca87 febe 53f4 21be
00000180: 3dbe 783e ee31 383f 43c3 2f3e d8c0 7dbc
00000190: 43af bf3c 26b4 a9bb a92c 373f fd5d 4d3d
000001a0: 8545 be3e 4e0a 09bf c64d babc 3a4b 553f
000001b0: 05fe b03c 52e9 febe 4552 0ebc a1e8 19bf
000001c0: 4d98 253f 11d8 133d 0b55 533f 9173 013c
000001d0: 2c68 81be cb66 14bd ae42 95be 20de 023e
000001e0: 67c9 433c c454 de3e ebd3 41bd 4b8c 5cbd
000001f0: 84f7 da3d 7a11 8cbe fb2c 9dbe cb4c 123d
00000200: 2627 df3e f913 ee3e e647 6bbb 7d2d 27bc
00000210: 70a1 e43c 2724 da3b 82e6 1a3d 4059 d8be
00000220: 6857 0dbc 9de4 b33e 0ee9 9e3e 0185 f03b
00000230: 362d 273d 5378 f23e fe2b 7dbd 56f3 c23e
00000240: 0d02 703c 7bff 6bbc 3330 ee3e 5ae1 033f
00000250: bc25 6e3c caf0 a2be 0978 dabe 7432 793c
00000260: ab65 6b3d 5449 97be 089d 323f 736e 113d
00000270: e57c e53e 9772 713d 6bdc cf3c 9c3d 583e
00000280: 2a4d 8b3d afa9 e6be 9931 b8be f3f8 283f
00000290: 9e35 923e cbc9 203d fc38 1fbf 93b1 253f
000002a0: afce 5abc 783c 093f bf68 aa3e 8d9f 4f3d
000002b0: 4e84 25bf 47f5 493f c1c3 123f 3476 053f
000002c0: 86b7 1a3f 1d00 86bd c1d7 95ba bd4f cb3e
000002d0: 4fd8 d13c 5813 6fbc 5484 ce3e df39 d2bc
000002e0: c7e9 0c3f e095 ce3e 44b0 503c 575a 8bbe
000002f0: 0732 233f e474 d23e 186f 12bf e820 a53b
00000300: c1c9 10bd 5a45 563d 00c2 423f 7ef2 03bf
00000310: 5c3c dcba 6e8b 61bf 202d 80be 4e7c 57bd
00000320: 34f5 3bbd a62e fbbe 8a65 62bd ade4 50be
00000330: 6fb2 06be f0f0 ae3e 4364 403e 1013 73bc
00000340: f427 ff3e 2d3b 7ebe 5d2c 92bc c279 1abf
00000350: 6bd2 d83c 58e2 753d c3e7 f9bc e589 27bf
00000360: 41fa 203f 1e0e c23e 6138 86be e4ad 19bf
00000370: 7cf8 24bf 18ba 713e 5494 043f c433 0d3e
00000380: 7ab9 5bbe 0280 52bf dcaf 34be acd5 37bd
00000390: 68be 123d 6248 383d d28b 16bf 8f2b 4fbd
000003a0: 3c1a d3be 1894 fe3e 8600 1cbc edb2 60bf
000003b0: 534e d9bc 12e3 153f 4e3c 2cbc 6b60 163f
000003c0: 98ef 1abf 76ee 2a3d b715 3dbf 4247 eebb
000003d0: 2913 3e3e 70c1 10bd 0da2 c83e a393 d0bd
000003e0: 868a 38bd ba36 bbbe 4f23 ee3a ea0f a3ba
000003f0: b1a3 5abe 2cd6 913e 1d99 ac3e d3c4 e53c
-0.55419713 -0.47635826 -0.03311064 -0.012345438 0.03105843 0.01104046 -0.047849253 0.32025862
-0.04432667 -0.43220145 -0.40790868 -0.017339094 0.036911003 -0.4037665 -0.015984936 -0.4689029
-0.05140308 -0.06269348 -0.54520106 -0.5287173 -0.008349298 0.2985259 0.53719896 -0.020595325
-0.0018603792 0.33815867 -0.6644834 0.030198783 -0.4617522 0.060986776 -0.016266987 -0.24095002
0.058403943 0.42685205 0.37007147 -0.7244618 -0.39480606 -0.041735232 0.5599218 -0.6556238
-0.012406079 -0.47285053 -0.41923612 -0.05993111 0.68497777 -0.7456232 -0.51821494 -0.5515626
-0.59538853 0.054990396 0.02409826 -0.36216822 0.011016145 0.031499002 -0.45932811 0.018023752
-0.56881917 -0.4133777 -0.0056383586 0.3084493 -0.5353773 -0.44742608 0.5551764 0.0083047105
0.016498124 0.021713195 -0.7840146 0.5227773 -0.017116843 0.8319694 0.20401937 -0.013576324
0.055487562 0.4722079 -0.036914866 0.19558829 0.15026969 -0.36786112 -0.12389873 0.039754827
-0.6256281 0.22054073 0.0069650407 0.6619899 0.053847227 0.0024285628 0.030694159 0.70598483
-0.7201846 -0.4402743 0.2988434 0.5144546 0.5971176 -0.26108488 -0.49712974 -0.15815859
0.2429132 0.71951187 0.1716433 -0.015487872 0.023399001 -0.005178946 0.7155252 0.050138462
0.37162414 -0.5353135 -0.022742163 0.8331791 0.021605501 -0.49787384 -0.008686607 -0.6012059
0.6468552 0.03609473 0.8255164 0.007901088 -0.2527479 -0.036230844 -0.29152435 0.12780046
0.0119498735 0.43424046 -0.04732124 -0.05384473 0.10691741 -0.27357084 -0.3069838 0.035717767
0.43584555 0.46499613 -0.003590101 -0.010203716 0.02790901 0.0066571417 0.037817486 -0.42255592
-0.008626796 0.35135356 0.31037182 0.007340074 0.0408146 0.47357425 -0.061809532 0.38076276
0.014648926 -0.014404173 0.46521148 0.51515734 0.014535364 -0.31824332 -0.42669705 0.015209783
0.057470005 -0.29548132 0.6977086 0.035505723 0.4482185 0.058947172 0.025373658 0.21117252
0.06801827 -0.45051333 -0.3597534 0.66004866 0.28556532 0.039254945 -0.62196326 0.6472408
-0.013354941 0.53607893 0.3328304 0.05068927 -0.64655006 0.7888989 0.57329947 0.5213349
0.60436285 -0.0654299 -0.0011432098 0.39709273 0.02561584 -0.014592014 0.40335333 -0.02566236
0.55044216 0.4034872 0.0127373375 -0.2721736 0.6374821 0.41104805 -0.57200766 0.005039323
-0.035348658 0.052312233 0.7607727 -0.5154189 -0.0016802656 -0.8810338 -0.25034428 -0.05260878
-0.04588814 -0.49059027 -0.055272616 -0.20399733 -0.13154005 0.34168196 0.18788247 -0.014836088
0.4983517 -0.24827261 -0.01784342 -0.6034204 0.026467523 0.06003031 -0.03050602 -0.65444785
0.6288186 0.37901396 -0.2621489 -0.6003096 -0.6444166 0.23606145 0.5178883 0.13789278
-0.21457472 -0.82226574 -0.1764521 -0.044881508 0.035826117 0.044990905 -0.588071 -0.05057865
-0.41230953 0.49722362 -0.009521609 -0.8777302 -0.026526606 0.58549607 -0.010512425 0.5874087
-0.6052184 0.04173132 -0.7386126 -0.007271678 0.18561997 -0.035340726 0.39186135 -0.101844095
-0.04505398 -0.3656519 0.0018168482 -0.0012440656 -0.21351506 0.28483713 0.33710566 0.028047955

fc.1.0.bias f4 [2]
00000000: 2cf2 143e 0463 03be
0.14545506 -0.1283074
